Using device: cuda

================================================================================
MULTIMODAL MEMORY NETWORK TRAINING
================================================================================

Creating synthetic multimodal dataset...
Train samples: 2000
Val samples: 500
Batch size: 32

Creating model...

MultiModalMemoryNetwork Architecture:
============================================================
MultiModalMemoryNetwork(
  (text_encoder): TextEncoder(
    (token_embedding): Embedding(1000, 256)
    (position_embedding): Embedding(32, 256)
    (transformer): TransformerEncoder(
      (layers): ModuleList(
        (0-2): 3 x TransformerEncoderLayer(
          (self_attn): MultiheadAttention(
            (out_proj): NonDynamicallyQuantizableLinear(in_features=256, out_features=256, bias=True)
          )
          (linear1): Linear(in_features=256, out_features=1024, bias=True)
          (dropout): Dropout(p=0.1, inplace=False)
          (linear2): Linear(in_features=1024, out_features=256, bias=True)
          (norm1): LayerNorm((256,), eps=1e-05, elementwise_affine=True)
          (norm2): LayerNorm((256,), eps=1e-05, elementwise_affine=True)
          (dropout1): Dropout(p=0.1, inplace=False)
          (dropout2): Dropout(p=0.1, inplace=False)
        )
      )
    )
    (dropout): Dropout(p=0.1, inplace=False)
    (norm): LayerNorm((256,), eps=1e-05, elementwise_affine=True)
  )
  (image_encoder): ImageEncoder(
    (patch_embed): Conv2d(3, 256, kernel_size=(8, 8), stride=(8, 8))
    (dropout): Dropout(p=0.1, inplace=False)
    (transformer): TransformerEncoder(
      (layers): ModuleList(
        (0-2): 3 x TransformerEncoderLayer(
          (self_attn): MultiheadAttention(
            (out_proj): NonDynamicallyQuantizableLinear(in_features=256, out_features=256, bias=True)
          )
          (linear1): Linear(in_features=256, out_features=1024, bias=True)
          (dropout): Dropout(p=0.1, inplace=False)
          (linear2): Linear(in_features=1024, out_features=256, bias=True)
          (norm1): LayerNorm((256,), eps=1e-05, elementwise_affine=True)
          (norm2): LayerNorm((256,), eps=1e-05, elementwise_affine=True)
          (dropout1): Dropout(p=0.1, inplace=False)
          (dropout2): Dropout(p=0.1, inplace=False)
        )
      )
    )
    (norm): LayerNorm((256,), eps=1e-05, elementwise_affine=True)
  )
  (audio_encoder): AudioEncoder(
    (conv_layers): Sequential(
      (0): Conv2d(1, 64, kernel_size=(3, 3), stride=(2, 2), padding=(1, 1))
      (1): BatchNorm2d(64, eps=1e-05, momentum=0.1, affine=True, track_running_stats=True)
      (2): ReLU()
      (3): Dropout2d(p=0.1, inplace=False)
      (4): Conv2d(64, 128, kernel_size=(3, 3), stride=(2, 2), padding=(1, 1))
      (5): BatchNorm2d(128, eps=1e-05, momentum=0.1, affine=True, track_running_stats=True)
      (6): ReLU()
      (7): Dropout2d(p=0.1, inplace=False)
      (8): Conv2d(128, 256, kernel_size=(3, 3), stride=(2, 2), padding=(1, 1))
      (9): BatchNorm2d(256, eps=1e-05, momentum=0.1, affine=True, track_running_stats=True)
      (10): ReLU()
      (11): Dropout2d(p=0.1, inplace=False)
      (12): Conv2d(256, 512, kernel_size=(3, 3), stride=(2, 2), padding=(1, 1))
      (13): BatchNorm2d(512, eps=1e-05, momentum=0.1, affine=True, track_running_stats=True)
      (14): ReLU()
      (15): Dropout2d(p=0.1, inplace=False)
    )
    (pool): AdaptiveAvgPool2d(output_size=(1, 1))
    (projection): Linear(in_features=512, out_features=256, bias=True)
    (norm): LayerNorm((256,), eps=1e-05, elementwise_affine=True)
  )
  (text_proj): Linear(in_features=256, out_features=256, bias=True)
  (central_memory): TestTimeMemory(
    (mha): MultiheadAttention(
      (out_proj): NonDynamicallyQuantizableLinear(in_features=256, out_features=256, bias=True)
    )
    (update_gate): Sequential(
      (0): Linear(in_features=512, out_features=256, bias=True)
      (1): LayerNorm((256,), eps=1e-05, elementwise_affine=True)
      (2): ReLU()
      (3): Linear(in_features=256, out_features=256, bias=True)
      (4): Sigmoid()
    )
    (memory_update): Sequential(
      (0): Linear(in_features=512, out_features=256, bias=True)
      (1): LayerNorm((256,), eps=1e-05, elementwise_affine=True)
      (2): ReLU()
      (3): Linear(in_features=256, out_features=256, bias=True)
    )
    (dropout): Dropout(p=0.1, inplace=False)
    (norm): LayerNorm((256,), eps=1e-05, elementwise_affine=True)
  )
  (text_memory): TestTimeMemory(
    (mha): MultiheadAttention(
      (out_proj): NonDynamicallyQuantizableLinear(in_features=256, out_features=256, bias=True)
    )
    (update_gate): Sequential(
      (0): Linear(in_features=512, out_features=256, bias=True)
      (1): LayerNorm((256,), eps=1e-05, elementwise_affine=True)
      (2): ReLU()
      (3): Linear(in_features=256, out_features=256, bias=True)
      (4): Sigmoid()
    )
    (memory_update): Sequential(
      (0): Linear(in_features=512, out_features=256, bias=True)
      (1): LayerNorm((256,), eps=1e-05, elementwise_affine=True)
      (2): ReLU()
      (3): Linear(in_features=256, out_features=256, bias=True)
    )
    (dropout): Dropout(p=0.1, inplace=False)
    (norm): LayerNorm((256,), eps=1e-05, elementwise_affine=True)
  )
  (image_memory): TestTimeMemory(
    (mha): MultiheadAttention(
      (out_proj): NonDynamicallyQuantizableLinear(in_features=256, out_features=256, bias=True)
    )
    (update_gate): Sequential(
      (0): Linear(in_features=512, out_features=256, bias=True)
      (1): LayerNorm((256,), eps=1e-05, elementwise_affine=True)
      (2): ReLU()
      (3): Linear(in_features=256, out_features=256, bias=True)
      (4): Sigmoid()
    )
    (memory_update): Sequential(
      (0): Linear(in_features=512, out_features=256, bias=True)
      (1): LayerNorm((256,), eps=1e-05, elementwise_affine=True)
      (2): ReLU()
      (3): Linear(in_features=256, out_features=256, bias=True)
    )
    (dropout): Dropout(p=0.1, inplace=False)
    (norm): LayerNorm((256,), eps=1e-05, elementwise_affine=True)
  )
  (audio_memory): TestTimeMemory(
    (mha): MultiheadAttention(
      (out_proj): NonDynamicallyQuantizableLinear(in_features=256, out_features=256, bias=True)
    )
    (update_gate): Sequential(
      (0): Linear(in_features=512, out_features=256, bias=True)
      (1): LayerNorm((256,), eps=1e-05, elementwise_affine=True)
      (2): ReLU()
      (3): Linear(in_features=256, out_features=256, bias=True)
      (4): Sigmoid()
    )
    (memory_update): Sequential(
      (0): Linear(in_features=512, out_features=256, bias=True)
      (1): LayerNorm((256,), eps=1e-05, elementwise_affine=True)
      (2): ReLU()
      (3): Linear(in_features=256, out_features=256, bias=True)
    )
    (dropout): Dropout(p=0.1, inplace=False)
    (norm): LayerNorm((256,), eps=1e-05, elementwise_affine=True)
  )
  (fusion): Sequential(
    (0): Linear(in_features=771, out_features=512, bias=True)
    (1): LayerNorm((512,), eps=1e-05, elementwise_affine=True)
    (2): ReLU()
    (3): Dropout(p=0.1, inplace=False)
    (4): Linear(in_features=512, out_features=256, bias=True)
    (5): LayerNorm((256,), eps=1e-05, elementwise_affine=True)
  )
  (feedback): Sequential(
    (0): Linear(in_features=256, out_features=256, bias=True)
    (1): LayerNorm((256,), eps=1e-05, elementwise_affine=True)
    (2): ReLU()
    (3): Dropout(p=0.1, inplace=False)
  )
  (text_decoder): ModalityDecoder(
    (decoder): Sequential(
      (0): Linear(in_features=256, out_features=256, bias=True)
      (1): LayerNorm((256,), eps=1e-05, elementwise_affine=True)
      (2): ReLU()
      (3): Dropout(p=0.1, inplace=False)
      (4): Linear(in_features=256, out_features=256, bias=True)
      (5): LayerNorm((256,), eps=1e-05, elementwise_affine=True)
      (6): ReLU()
      (7): Dropout(p=0.1, inplace=False)
      (8): Linear(in_features=256, out_features=256, bias=True)
    )
  )
  (image_decoder): ModalityDecoder(
    (decoder): Sequential(
      (0): Linear(in_features=256, out_features=256, bias=True)
      (1): LayerNorm((256,), eps=1e-05, elementwise_affine=True)
      (2): ReLU()
      (3): Dropout(p=0.1, inplace=False)
      (4): Linear(in_features=256, out_features=256, bias=True)
      (5): LayerNorm((256,), eps=1e-05, elementwise_affine=True)
      (6): ReLU()
      (7): Dropout(p=0.1, inplace=False)
      (8): Linear(in_features=256, out_features=256, bias=True)
    )
  )
  (audio_decoder): ModalityDecoder(
    (decoder): Sequential(
      (0): Linear(in_features=256, out_features=256, bias=True)
      (1): LayerNorm((256,), eps=1e-05, elementwise_affine=True)
      (2): ReLU()
      (3): Dropout(p=0.1, inplace=False)
      (4): Linear(in_features=256, out_features=256, bias=True)
      (5): LayerNorm((256,), eps=1e-05, elementwise_affine=True)
      (6): ReLU()
      (7): Dropout(p=0.1, inplace=False)
      (8): Linear(in_features=256, out_features=256, bias=True)
    )
  )
)
============================================================
Total trainable parameters: 10,686,592
============================================================

Using SGD optimizer (lr=0.01, momentum=0.9)

================================================================================
TRAINING
================================================================================
…
