Using device: cuda

================================================================================
FLICKR8K IMAGE-TEXT TRAINING WITH SGD
================================================================================

Loading Flickr8k dataset...
Loaded 30000 image-text pairs for train split
Loaded 5000 image-text pairs for val split
Train samples: 30000
Val samples: 5000

Creating model...

MultiModalMemoryNetwork Architecture:
============================================================
MultiModalMemoryNetwork(
  (text_encoder): TextEncoder(
    (token_embedding): Embedding(34, 512)
    (position_embedding): Embedding(77, 512)
    (transformer): TransformerEncoder(
      (layers): ModuleList(
        (0-3): 4 x TransformerEncoderLayer(
          (self_attn): MultiheadAttention(
            (out_proj): NonDynamicallyQuantizableLinear(in_features=512, out_features=512, bias=True)
          )
          (linear1): Linear(in_features=512, out_features=2048, bias=True)
          (dropout): Dropout(p=0.1, inplace=False)
          (linear2): Linear(in_features=2048, out_features=512, bias=True)
          (norm1): LayerNorm((512,), eps=1e-05, elementwise_affine=True)
          (norm2): LayerNorm((512,), eps=1e-05, elementwise_affine=True)
          (dropout1): Dropout(p=0.1, inplace=False)
          (dropout2): Dropout(p=0.1, inplace=False)
        )
      )
    )
    (dropout): Dropout(p=0.1, inplace=False)
    (norm): LayerNorm((512,), eps=1e-05, elementwise_affine=True)
  )
  (image_encoder): ImageEncoder(
    (patch_embed): Conv2d(3, 512, kernel_size=(16, 16), stride=(16, 16))
    (dropout): Dropout(p=0.1, inplace=False)
    (transformer): TransformerEncoder(
      (layers): ModuleList(
        (0-3): 4 x TransformerEncoderLayer(
          (self_attn): MultiheadAttention(
            (out_proj): NonDynamicallyQuantizableLinear(in_features=512, out_features=512, bias=True)
          )
          (linear1): Linear(in_features=512, out_features=2048, bias=True)
          (dropout): Dropout(p=0.1, inplace=False)
          (linear2): Linear(in_features=2048, out_features=512, bias=True)
          (norm1): LayerNorm((512,), eps=1e-05, elementwise_affine=True)
          (norm2): LayerNorm((512,), eps=1e-05, elementwise_affine=True)
          (dropout1): Dropout(p=0.1, inplace=False)
          (dropout2): Dropout(p=0.1, inplace=False)
        )
      )
    )
    (norm): LayerNorm((512,), eps=1e-05, elementwise_affine=True)
  )
  (audio_encoder): AudioEncoder(
    (conv_layers): Sequential(
      (0): Conv2d(1, 64, kernel_size=(3, 3), stride=(2, 2), padding=(1, 1))
      (1): BatchNorm2d(64, eps=1e-05, momentum=0.1, affine=True, track_running_stats=True)
      (2): ReLU()
      (3): Dropout2d(p=0.1, inplace=False)
      (4): Conv2d(64, 128, kernel_size=(3, 3), stride=(2, 2), padding=(1, 1))
      (5): BatchNorm2d(128, eps=1e-05, momentum=0.1, affine=True, track_running_stats=True)
      (6): ReLU()
      (7): Dropout2d(p=0.1, inplace=False)
      (8): Conv2d(128, 256, kernel_size=(3, 3), stride=(2, 2), padding=(1, 1))
      (9): BatchNorm2d(256, eps=1e-05, momentum=0.1, affine=True, track_running_stats=True)
      (10): ReLU()
      (11): Dropout2d(p=0.1, inplace=False)
      (12): Conv2d(256, 512, kernel_size=(3, 3), stride=(2, 2), padding=(1, 1))
      (13): BatchNorm2d(512, eps=1e-05, momentum=0.1, affine=True, track_running_stats=True)
      (14): ReLU()
      (15): Dropout2d(p=0.1, inplace=False)
    )
    (pool): AdaptiveAvgPool2d(output_size=(1, 1))
    (projection): Linear(in_features=512, out_features=512, bias=True)
    (norm): LayerNorm((512,), eps=1e-05, elementwise_affine=True)
  )
  (text_proj): Linear(in_features=512, out_features=512, bias=True)
  (central_memory): TestTimeMemory(
    (mha): MultiheadAttention(
      (out_proj): NonDynamicallyQuantizableLinear(in_features=512, out_features=512, bias=True)
    )
    (update_gate): Sequential(
      (0): Linear(in_features=1024, out_features=512, bias=True)
      (1): LayerNorm((512,), eps=1e-05, elementwise_affine=True)
      (2): ReLU()
      (3): Linear(in_features=512, out_features=512, bias=True)
      (4): Sigmoid()
    )
    (memory_update): Sequential(
      (0): Linear(in_features=1024, out_features=512, bias=True)
      (1): LayerNorm((512,), eps=1e-05, elementwise_affine=True)
      (2): ReLU()
      (3): Linear(in_features=512, out_features=512, bias=True)
    )
    (dropout): Dropout(p=0.1, inplace=False)
    (norm): LayerNorm((512,), eps=1e-05, elementwise_affine=True)
  )
  (text_memory): TestTimeMemory(
    (mha): MultiheadAttention(
      (out_proj): NonDynamicallyQuantizableLinear(in_features=512, out_features=512, bias=True)
    )
    (update_gate): Sequential(
      (0): Linear(in_features=1024, out_features=512, bias=True)
      (1): LayerNorm((512,), eps=1e-05, elementwise_affine=True)
      (2): ReLU()
      (3): Linear(in_features=512, out_features=512, bias=True)
      (4): Sigmoid()
    )
    (memory_update): Sequential(
      (0): Linear(in_features=1024, out_features=512, bias=True)
      (1): LayerNorm((512,), eps=1e-05, elementwise_affine=True)
      (2): ReLU()
      (3): Linear(in_features=512, out_features=512, bias=True)
    )
    (dropout): Dropout(p=0.1, inplace=False)
    (norm): LayerNorm((512,), eps=1e-05, elementwise_affine=True)
  )
  (image_memory): TestTimeMemory(
    (mha): MultiheadAttention(
      (out_proj): NonDynamicallyQuantizableLinear(in_features=512, out_features=512, bias=True)
    )
    (update_gate): Sequential(
      (0): Linear(in_features=1024, out_features=512, bias=True)
      (1): LayerNorm((512,), eps=1e-05, elementwise_affine=True)
      (2): ReLU()
      (3): Linear(in_features=512, out_features=512, bias=True)
      (4): Sigmoid()
    )
    (memory_update): Sequential(
      (0): Linear(in_features=1024, out_features=512, bias=True)
      (1): LayerNorm((512,), eps=1e-05, elementwise_affine=True)
      (2): ReLU()
      (3): Linear(in_features=512, out_features=512, bias=True)
    )
    (dropout): Dropout(p=0.1, inplace=False)
    (norm): LayerNorm((512,), eps=1e-05, elementwise_affine=True)
  )
  (audio_memory): TestTimeMemory(
    (mha): MultiheadAttention(
      (out_proj): NonDynamicallyQuantizableLinear(in_features=512, out_features=512, bias=True)
    )
    (update_gate): Sequential(
      (0): Linear(in_features=1024, out_features=512, bias=True)
      (1): LayerNorm((512,), eps=1e-05, elementwise_affine=True)
      (2): ReLU()
      (3): Linear(in_features=512, out_features=512, bias=True)
      (4): Sigmoid()
    )
    (memory_update): Sequential(
      (0): Linear(in_features=1024, out_features=512, bias=True)
      (1): LayerNorm((512,), eps=1e-05, elementwise_affine=True)
      (2): ReLU()
      (3): Linear(in_features=512, out_features=512, bias=True)
    )
    (dropout): Dropout(p=0.1, inplace=False)
    (norm): LayerNorm((512,), eps=1e-05, elementwise_affine=True)
  )
  (fusion): Sequential(
    (0): Linear(in_features=1539, out_features=1024, bias=True)
    (1): LayerNorm((1024,), eps=1e-05, elementwise_affine=True)
    (2): ReLU()
    (3): Dropout(p=0.1, inplace=False)
    (4): Linear(in_features=1024, out_features=512, bias=True)
    (5): LayerNorm((512,), eps=1e-05, elementwise_affine=True)
  )
  (feedback): Sequential(
    (0): Linear(in_features=512, out_features=512, bias=True)
    (1): LayerNorm((512,), eps=1e-05, elementwise_affine=True)
    (2): ReLU()
    (3): Dropout(p=0.1, inplace=False)
  )
  (text_decoder): ModalityDecoder(
    (decoder): Sequential(
      (0): Linear(in_features=512, out_features=512, bias=True)
      (1): LayerNorm((512,), eps=1e-05, elementwise_affine=True)
      (2): ReLU()
      (3): Dropout(p=0.1, inplace=False)
      (4): Linear(in_features=512, out_features=512, bias=True)
      (5): LayerNorm((512,), eps=1e-05, elementwise_affine=True)
      (6): ReLU()
      (7): Dropout(p=0.1, inplace=False)
      (8): Linear(in_features=512, out_features=512, bias=True)
    )
  )
  (image_decoder): ModalityDecoder(
    (decoder): Sequential(
      (0): Linear(in_features=512, out_features=512, bias=True)
      (1): LayerNorm((512,), eps=1e-05, elementwise_affine=True)
      (2): ReLU()
      (3): Dropout(p=0.1, inplace=False)
      (4): Linear(in_features=512, out_features=512, bias=True)
      (5): LayerNorm((512,), eps=1e-05, elementwise_affine=True)
      (6): ReLU()
      (7): Dropout(p=0.1, inplace=False)
      (8): Linear(in_features=512, out_features=512, bias=True)
    )
  )
  (audio_decoder): ModalityDecoder(
    (decoder): Sequential(
      (0): Linear(in_features=512, out_features=512, bias=True)
      (1): LayerNorm((512,), eps=1e-05, elementwise_affine=True)
      (2): ReLU()
      (3): Dropout(p=0.1, inplace=False)
      (4): Linear(in_features=512, out_features=512, bias=True)
      (5): LayerNorm((512,), eps=1e-05, elementwise_affine=True)
      (6): ReLU()
      (7): Dropout(p=0.1, inplace=False)
      (8): Linear(in_features=512, out_features=512, bias=True)
    )
  )
)/home/alex/Documents/DeepLearning2/train_flickr8k_sgd.py:215: FutureWarning: `torch.cuda.amp.GradScaler(args...)` is deprecated. Please use `torch.amp.GradScaler('cuda', args...)` instead.
  scaler = GradScaler()

============================================================
Total trainable parameters: 43,269,504
============================================================
…
